lstm_best.pth (torch, 106844 bytes, 6 tensors)

lstm.weight_ih_l0 f4 [256, 35]
0.01199109 -0.038999658 0.08048477 0.11821096 -0.031063221 0.09484131 0.0035093266 -0.049089182
0.09460813 -0.06539152 -0.083024055 -0.00029541372 0.13885155 -0.06555465 -0.002877886 -0.016723184
-0.06997351 -0.07613785 -0.04870099 -0.0031055387 -0.11203249 0.09160808 -0.026114568 0.045584124
0.09963777 -0.07991254 -0.059782676 0.07271131 0.01150692 0.085352905 -0.009647049 0.13411112
0.033595875 -0.05284058 0.07768542 0.06136935 -0.13934506 0.020806272 -0.003293876 -0.02411567
-0.065787695 0.049654666 0.05496311 -0.026129797 -0.17269102 0.017222065 0.046507306 -0.102626406
-0.083424464 0.083709605 -0.11934241 -0.009880752 0.14804135 0.081921086 -0.061706487 -0.123997934
-0.08015815 0.07521636 -0.11503498 0.0103821475 -0.0003853552 -0.011754811 -0.1129722 0.15963404
0.0571812 0.00055703404 -0.051386893 0.02557749 -0.14342037 -0.04750752 0.049620047 0.00027808454
0.037627306 0.065471224 0.13138445 0.003506382 -0.0830826 0.05355346 0.038314126 0.07523541
0.08004342 -0.04941154 -0.0017983759 -0.05596158 0.0770268 -0.024954775 0.05404966 0.056514453
-0.09191481 0.18235295 0.01713468 -0.05347592 0.13678262 0.025255505 -0.09623811 0.053347237
0.03129701 0.0030999002 0.08074006 -0.03201712 0.02635909 -0.012893485 0.00095754414 0.10150181
0.04496163 -0.024463324 -0.008362809 -0.07445935 0.0004952638 -0.1096505 -0.1393402 0.061898578
-0.015506409 -0.11915553 -0.011761924 -0.062445544 -0.0804375 0.04487859 0.10617232 -0.04829853
-0.038360294 0.09874149 0.08952537 -0.029642077 -0.13179013 -0.0711774 0.08222596 -0.14971235
0.0158155 0.07912008 0.11943836 0.01121412 -0.058580764 0.08159749 0.040508892 -0.10360917
-0.13166773 0.028142756 0.040256485 -0.005186063 0.01393368 -0.024603365 -0.12183287 0.096949615
0.051439553 0.071405105 -0.13343205 0.043380845 0.0039113625 -0.15259197 0.03060606 0.14761136
-0.053783827 -0.13069536 0.09507128 0.14286532 0.06670534 0.08368997 -0.0698417 -0.1154089
-0.07243369 0.09433906 -0.13694209 0.063762926 -0.086734325 -0.0060256138 0.026505793 0.0706933
0.04770051 0.0228049 -0.11884275 0.12422485 0.0055768033 0.05353807 0.06169733 -0.11911464
0.07613273 0.072182074 -0.0052545 0.082458556 0.03217437 -0.092745766 -0.032699242 0.028215734
-0.15257072 0.06041556 0.033327416 0.031735163 -0.031043366 0.08768366 -0.025044676 -0.05258581
-0.030649409 0.032001294 0.14702739 -0.019269431 0.11228895 0.04792 -0.082626514 -0.038125012
-0.01076062 -0.00239107 -0.044808265 0.10474238 -0.059663158 0.14201201 -0.10855241 -0.0011334257
0.008244928 -0.07637378 0.09044545 -0.0046985587 0.103296675 0.054395523 0.11909419 -0.004383034
-0.068394594 0.06945177 0.062345035 0.12321538 -0.017969273 -0.1923052 0.059350155 0.054254543
-0.20903182 -0.11623325 0.1308029 -0.012628718 -0.05212972 -0.0074506393 -0.079567455 -0.1911704
0.11950472 -0.05074849 0.010871513 0.10808172 0.072842725 -0.08979344 -0.028053451 -0.095382296
0.06185957 -0.086241625 -0.042182203 0.031474844 0.10209886 0.09488759 0.048748605 0.10913073
-0.04490661 0.10673813 -0.09722572 0.01037509 -0.012882266 0.09411291 0.014213399 0.08015612
00000000: 4776 443c 1bbe 1fbd 33d5 a43d 9618 f23d
00000010: 4c78 febc 293c c23d bbfc 653b bd11 49bd
00000020: e8c1 c13d fdeb 85bd 8408 aabd c2e1 9ab9
00000030: 1a2f 0e3e 8441 86bd ea9a 3cbb 0fff 88bc
00000040: 464e 8fbd 29ee 9bbd b07a 47bd 4b86 4bbb
00000050: 4a71 e5bd 049d bb3d 38ee d5bc 6bb6 3a3d
00000060: e30e cc3d 30a9 a3bd aede 74bd abe9 943d
00000070: 8587 3c3c 81cd ae3d a80e 1ebc 6d54 093e
00000080: d49b 093d 5d6f 58bd 8919 9f3d 6d5e 7b3d
00000090: 79b0 0ebe ea71 aa3c 12de 57bb 3a8e c5bc
000000a0: b3bb 86bd b162 4b3d ff20 613d 280e d6bc
000000b0: ead5 30be 4a15 8d3c 727e 3e3d cb2d d2bd
000000c0: 72da aabd f16f ab3d cb69 f4bd e1e2 21bc
000000d0: 2798 173e 3ec6 a73d f1bf 7cbd a1f2 fdbd
000000e0: f529 a4bd 090b 9a3d 7697 ebbd e219 2a3c
000000f0: 8009 cab9 4097 40bc f85d e7bd 1b77 233e
00000100: d536 6a3d ec05 123a 107b 52bd e287 d13c
00000110: cadc 12be 3f97 42bd 643e 4b3d e0cb 9139
00000120: 171f 1a3d c715 863d a589 063e 54cb 653b
00000130: 3627 aabd df5a 5b3d 46ef 1c3d 0615 9a3d
00000140: ceed a33d c163 4abd 7bb7 ebba f837 65bd
00000150: 3ac0 9d3d f56d ccbc 2d63 5d3d b37b 673d
00000160: d53d bcbd bbba 3a3e 075e 8c3c 9109 5bbd
00000170: be10 0c3e a2e4 ce3c 7c18 c5bd a282 5a3d
00000180: 4b31 003d b227 4b3b 0b5b a53d 6224 03bd
00000190: 05ef d73c 323f 53bc b303 7b3a 2ee0 cf3d
000001a0: b029 383d 4f67 c8bc 2a04 09bc 257e 98bd
000001b0: 97d4 013a 7190 e0bd 33af 0ebe 5d89 7d3d
000001c0: 980e 7ebc d107 f4bd 16b5 40bc e6c6 7fbd
000001d0: 6abc a4bd 9dd2 373d e070 d93d aed4 45bd
000001e0: af1f 1dbd fa38 ca3d 1459 b73d f1d3 f2bc
000001f0: fef3 06be 75c5 91bd 1666 a83d 324e 19be
00000200: 828f 813c b509 a23d 199c f43d 6ebb 373c
00000210: 62f2 6fbd 961c a73d a7ec 253d 0b31 d4bd
00000220: e8d3 06be a38b e63c fce3 243d d9ef a9bb
00000230: 174a 643c ff8c c9bc 8383 f9bd 858d c63d
00000240: 48b2 523d d73c 923d 69a2 08be 1db0 313d
00000250: e32a 803b 1241 1cbe 8fb9 fa3c 6f27 173e
00000260: 6e4c 5cbd 01d5 05be bbb4 c23d 494b 123e
00000270: cf9c 883d a665 ab3d 2a09 8fbd 805b ecbd
00000280: 1d58 94bd d634 c13d 8c3a 0cbe 2396 823d
00000290: c4a1 b1bd 8372 c5bb ad22 d93c a6c7 903d
000002a0: 9c61 433d 57d1 ba3c d463 f3bd 9969 fe3d
000002b0: 9ebd b63b bc4a 5b3d 57b6 7c3d 60f2 f3bd
000002c0: 7aeb 9b3d 32d4 933d f12d acbb 08e0 a83d
000002d0: 46c9 033d 7ef1 bdbd a4ef 05bd af24 e73c
000002e0: 803b 1cbe 4e76 773d 5482 083d bbfc 013d
000002f0: a84e febc 7e93 b33d 7e2a cdbc 3864 57bd
00000300: 7814 fbbc ca13 033d 598e 163e edda 9dbc
00000310: c0f7 e53d c347 443d 1738 a9bd f928 1cbd
00000320: 504d 30bc 7fb3 1cbb df88 37bd 2c83 d63d
00000330: 5b61 74bd 996b 113e ba50 debd 758f 94ba
00000340: bc15 073c db69 9cbd 773b b93d 5ef6 99bb
00000350: 358d d33d d7cd 5e3d a8e7 f33d 8e9f 8fbb
00000360: 7712 8cbd bb3c 8e3d 825d 7f3d 5858 fc3d
00000370: 4c34 93bc a8eb 44be 2619 733d 033a 5e3d
00000380: 700c 56be b30b eebd 32f1 053e afe8 4ebc
00000390: f985 55bd 7e24 f4bb 43f4 a2bd 2cc2 43be
000003a0: e4be f43d a6dd 4fbd 6e1e 323c f359 dd3d
000003b0: 912e 953d a0e5 b7bd 5ad0 e5bc cb57 c3bd
000003c0: 7660 7d3d 739f b0bd 3fc7 2cbd c4eb 003d
000003d0: 3519 d13d 6d54 c23d 9eac 473d ef7f df3d
000003e0: feef 37bd 8599 da3d 471e c7bd 48fc 293c
000003f0: 2410 53bc 45be c03d 51df 683c e428 a43d

lstm.weight_hh_l0 f4 [256, 64]
-0.11465735 0.037746985 -0.12731184 0.1303045 0.021050941 0.08547199 0.11727496 -0.013733505
-0.07196383 -0.08091693 0.07243179 0.031226657 0.099419616 -0.070777334 0.009193749 -0.022721551
-0.04800661 -0.073851414 0.062796414 0.060396668 -0.1448986 -0.093478285 -0.07616283 0.0036309394
-0.015869087 0.06893156 -0.017689781 0.082238585 -0.10624619 -0.1232899 0.0021197645 0.03297608
-0.09367091 0.104382396 0.0060450863 -0.111891165 -0.090498574 -0.09574354 -0.063593045 -0.094238885
0.09828725 0.08487724 -0.029678687 -0.05629128 -0.06581523 0.049647655 0.0490556 0.024794148
-0.10274989 0.02405664 0.067242876 0.16279098 0.124165244 0.07310827 -0.13781038 -0.05832878
0.007232715 0.0016860763 0.03282676 0.037419416 -0.031595733 -0.025955472 -0.05598583 0.05118283
0.14308746 0.11980046 0.0012268197 0.0054437183 -0.0370165 0.015095864 -0.0036604865 0.13811702
0.18393303 -0.02737396 -0.039509222 0.09250896 -0.037921663 0.01582587 -0.13089034 0.17857942
0.03215216 0.09341762 0.19749744 -0.02397798 0.031653278 -0.011956049 0.2416657 -0.1509169
-0.111632764 -0.04082602 -0.12887059 -0.055523828 0.16377276 0.047973488 0.09420668 -0.043974727
-0.09796155 0.06271212 0.07866654 -0.13318978 -0.0672608 0.12684464 -0.027113773 -0.10674523
-0.11034623 -0.015552912 -0.094340384 0.068788745 0.039547786 -0.17802227 -0.08282634 0.05795613
-0.114260174 -0.08608937 0.1565339 0.00465749 0.018797837 0.010402846 -0.002115249 0.06563477
-0.15256307 -0.14073968 0.13036686 -0.0030633342 0.04254801 -0.14350787 -0.02737448 -0.011390037
-0.064792335 -0.11281222 0.11092921 0.11848482 -0.0058742696 0.08364642 0.077147804 0.060366664
0.1003049 0.030781293 0.067948006 0.11511742 0.051048584 0.040823206 -0.06564153 0.13113667
0.10062509 -0.049639903 -0.060612366 0.08342701 -0.078794554 0.106070176 0.026587553 0.06644305
-0.11344184 -0.15722503 -0.062123153 0.13601631 0.05051682 0.044094604 -0.012344776 -0.07988423
0.06521338 -0.097877696 0.08334569 -0.12592903 0.031037068 -0.09416018 -0.025652738 0.08160745
-0.13574862 0.06407846 0.05837374 -0.0065320916 0.03328561 -0.10991246 -0.0332248 0.0181875
0.07822252 -0.024627523 -0.036433402 -0.08038071 0.05812044 0.11874809 0.04683004 -0.059749857
-0.027337454 0.029982071 -0.1357321 -0.026025228 0.07271019 -0.07936617 -0.121482655 0.01985736
-0.08091113 -0.012917963 -0.058900505 0.081887335 0.07030522 0.13690461 0.012260177 0.107216805
0.037928507 -0.049533736 -0.036816914 -0.14034726 0.10717336 -0.02504504 -0.07669663 0.0013357084
-0.03127251 -0.108816184 -0.12569113 0.04359985 0.046214305 -0.11988668 -0.0384463 0.09218458
0.13836928 0.053196806 -0.023746897 -0.016616091 -0.0031524855 -0.010322859 -0.0020398751 -0.13072495
0.07549235 -0.07551792 0.026094537 0.12010777 0.05202626 0.11856224 0.050898742 -0.006767527
-0.037441343 0.025545616 0.07997962 0.00058261014 0.14592692 -0.046386432 0.009685205 -0.095855914
0.005106648 -0.11515606 0.070510976 -0.038705584 -0.062968895 -0.05177298 -0.011414771 0.036866717
0.10046185 0.05703775 0.10013566 0.019253125 0.06328298 0.028182846 0.11025608 -0.043196913
00000000: 79d1 eabd 959c 1a3d 095e 02be 8b6e 053e
00000010: 0673 ac3c f00b af3d db2d f03d 7f02 61bc
00000020: c661 93bd c7b7 a5bd 1e57 943d 0ccf ff3c
00000030: 839c cb3d b5f3 90bd 61a1 163c 8c22 babc
00000040: 94a2 44bd 693f 97bd 689b 803d 7f62 773d
00000050: 4c60 14be 8b71 bfbd 42fb 9bbd 0ef5 6d3b
00000060: e3ff 81bc fd2b 8d3d 29ea 90bc b46c a83d
00000070: 9a97 d9bd 6a7f fcbd bfeb 0a3b ed11 073d
00000080: 89d6 bfbd 70c6 d53d dc15 c63b 3227 e5bd
00000090: 5157 b9bd 3015 c4bd 123d 82bd 5100 c1bd
000000a0: d34a c93d 1ed4 ad3d b820 f3bc af91 66bd
000000b0: 23ca 86bd 575b 4b3d 86ee 483d 191d cb3c
000000c0: 896e d2bd 6e12 c53c a2b6 893d aeb2 263e
000000d0: 594a fe3d cab9 953d 2a1e 0dbe 29ea 6ebd
000000e0: 6900 ed3b 55ff dc3a 5a75 063d 1a45 193d
000000f0: 876a 01bd 92a0 d4bc 6651 65bd 16a5 513d
00000100: 8585 123e f259 f53d 3dcd a03a 3861 b23b
00000110: 9d9e 17bd a554 773c c6e4 6fbb 8c6e 0d3e
00000120: f158 3c3e 5b3f e0bc 6cd4 21bd 5675 bd3d
00000130: bf53 1bbd 41a5 813c 1e08 06be 86dd 363e
00000140: fcb1 033d bd51 bf3d c53c 4a3e 786d c4bc
00000150: dea6 013d 4ee3 43bc 3777 773e f689 1abe
00000160: b89f e4bd 2f39 27bd a7f6 03be f46c 63bd
00000170: 0cb4 273e d97f 443d 6fef c03d d81e 34bd
00000180: 11a0 c8bd 366f 803d ec1b a13d e762 08be
00000190: 08c0 89bd 90e3 013e b41d debc 3e9d dabd
000001a0: 34fd e1bd a4d1 7ebc 8835 c1bd 1de1 8c3d
000001b0: dcfc 213d 784b 36be dba0 a9bd 6863 6d3d
000001c0: 3d01 eabd a04f b0bd 6c4a 203e dc9d 983b
000001d0: ecfd 993c b370 2a3c fd9f 0abb 866b 863d
000001e0: 7e39 1cbe 101e 10be e47e 053e 38c2 48bb
000001f0: d246 2e3d baf3 12be 7240 e0bc 479d 3abc
00000200: d8b1 84bd 180a e7bd db2e e33d 2ba8 f23d
00000210: f27c c0bb d04e ab3d abff 9d3d 0943 773d
00000220: a86c cd3d 0d29 fc3c 5328 8b3d afc2 eb3d
00000230: 5218 513d 3c36 273d 116f 86bd b148 063e
00000240: 8714 ce3d 3653 4bbd ac44 78bd c8db aa3d
00000250: 0a5f a1bd 523b d93d 24ce d93c 4b13 883d
00000260: 3254 e8bd 99ff 20be d974 7ebd dc47 0b3e
00000270: baea 4e3d 8b9c 343d be41 4abc 589a a3bd
00000280: 988e 853d 1a74 c8bd 25b1 aa3d 8af3 00be
00000290: 7341 fe3c 0dd7 c0bd b125 d2bc cf21 a73d
000002a0: b001 0bbe 913b 833d 4e19 6f3d 280b d6bb
000002b0: 7e56 083d c919 e1bd ba16 08bd f4fd 943c
000002c0: 2133 a03d a9bf c9bc 313b 15bd a49e a4bd
000002d0: b30f 6e3d 3332 f33d dbd0 3f3d 44bc 74bd
000002e0: ccf2 dfbc f69c f53c 5bfd 0abe dc32 d5bc
000002f0: 15e9 943d bb8a a2bd e6cb f8bd e7ab a23c
00000300: bcb4 a5bd dda5 53bc a841 71bd 8cb4 a73d
00000310: 2ffc 8f3d b930 0c3e e9de 483c 7c94 db3d
00000320: ec5a 1b3d e3e3 4abd 55cd 16bd 31b7 0fbe
00000330: b57d db3d 412b cdbc 1f13 9dbd f012 af3a
00000340: 9a17 00bd 05db debd 2db5 00be c295 323d
00000350: 364b 3d3d 2687 f5bd de79 1dbd 45cb bc3d
00000360: adb0 0d3e e5e4 593d da88 c2bc 781e 88bc
00000370: ee99 4ebb 3521 29bc 6daf 05bb c3dc 05be
00000380: bc9b 9a3d 24a9 9abd 36c4 d53c 10fb f53d
00000390: 7d19 553d c2d0 f23d 337b 503d 22c2 ddbb
000003a0: 185c 19bd 0a45 d13c 5bcc a33d 4eba 183a
000003b0: de6d 153e b3ff 3dbd b2ae 1e3c 1b50 c4bd
000003c0: ab55 a73b f1d6 ebbd 0f68 903d bf89 1ebd
000003d0: d6f5 80bd e70f 54bd 0505 3bbc 8e01 173d
000003e0: f1be cd3d 6aa0 693d ed13 cd3d bbb8 9d3c
000003f0: 829a 813d b6df e63c f1cd e13d 3fef 30bd

lstm.bias_ih_l0 f4 [256]
0.09864092 0.110504724 0.039596636 0.03160231 -0.02656476 0.033534523 0.10433869 -0.1162184
0.10956832 -0.090012096 0.04247364 -0.0046736454 0.088369764 0.029160138 -0.061479904 0.16624923
0.018662969 -0.04060572 0.02562639 -0.12137448 -0.063468486 -0.1219302 -0.062045515 0.03011118
-0.03308312 0.10242157 -0.014581992 -0.034838792 -0.01886126 0.10835059 0.013259887 -0.10130286
-0.14535023 0.10378474 0.039537255 -0.15173201 0.011985004 0.061106626 0.0426402 0.08059604
0.020472692 -0.03989544 0.06398713 0.07320486 -0.08485238 -0.02276962 0.1333759 -0.026701408
0.0493101 0.028547253 0.06326022 0.02696718 -0.10291066 -0.053222127 -0.0477349 0.062840074
-0.042750653 -0.1077065 -0.063556835 -0.012972164 0.05135673 -0.014463565 0.010384726 0.015044804
-0.062884934 0.024178859 -0.02748948 -0.1424597 0.10132439 0.012755414 0.022130158 -0.06050253
0.010300372 -0.116690315 0.057104513 -0.04224763 -0.07053673 -0.004193364 0.056540407 0.16485299
0.03816943 0.04515017 0.04245187 -0.08746256 -0.09595995 0.08856575 0.10586639 -0.0202136
0.017741602 0.14002271 0.038421165 0.01816443 -0.07752339 0.12052441 0.07675489 -0.07419555
0.05959842 -0.07834402 -0.036512896 0.011980795 0.13872115 -0.030160235 0.11659014 -0.038152568
0.117412 -0.080972016 -0.0119267795 0.02521958 -0.030904613 -0.030138254 0.13538483 0.15263902
0.10767511 0.10084955 0.11045108 0.07244377 -0.07269914 0.020830043 0.068926096 -0.012669465
0.09967848 -0.026059985 0.13879627 0.109906904 0.12638755 0.07938019 0.06600535 0.0351672
-0.09194007 -0.03204507 -0.055335812 0.04976662 -0.116621874 -0.020715423 0.07053369 0.04333893
0.11845983 0.10482851 -0.08306109 0.018086683 -0.06901203 -0.13976505 -0.08587385 0.021315811
-0.08961727 -0.008966877 -0.09671939 -0.039087266 -0.089773044 0.109661505 0.14499529 -0.070578694
-0.10713677 0.017391017 -0.092678204 -0.11594075 0.07304994 -0.011234511 0.06663908 -0.021370955
0.088744186 -0.0039401115 -0.06565657 -0.08155116 -0.08160964 0.07446053 0.014552501 -0.12661837
-0.014104119 -0.066136315 0.0618036 0.0049343393 0.03139576 -0.04660009 -0.11769863 -0.038077634
-0.12609772 -0.00026907466 -0.07542898 -0.07461587 -0.09133493 0.0046406183 0.10993017 0.10722486
-0.085741475 0.059538625 -0.1747712 0.12139905 -0.019222135 0.0111069 0.025987323 0.05617317
0.10491382 0.08956463 0.105660334 0.026556924 -0.04612547 -0.035511028 0.019159487 0.01511198
0.09701718 0.012946901 0.11219889 0.044348877 0.02271605 0.013494764 -0.019311463 -0.0720967
-0.0840596 -0.0005061585 -0.061488744 0.0116849365 -0.10394948 -0.015186613 0.001963154 0.10403408
0.12097266 0.019448914 -0.13528156 -0.065985985 0.110008985 -0.10450316 0.020878613 0.078652546
-0.14396453 -0.024697958 -0.101518184 -0.035481587 0.1395403 0.077312365 -0.08745228 0.0069204993
-0.086137086 0.071297005 -0.031273443 0.06801371 0.10349854 -0.023331117 -0.08082779 -0.047527757
0.07118233 0.11435386 0.02822571 -0.14691886 -0.14147101 -0.11206261 -0.06918534 -0.11250805
-0.04957597 0.10900783 -0.030978575 0.14185266 0.0890696 0.06988813 0.047402117 0.013898246
00000000: 4004 ca3d 4d50 e23d 1530 223d 6c71 013d
00000010: 579e d9bc 7f5b 093d 86af d53d ea03 eebd
00000020: 5b65 e03d 4358 b8bd d7f8 2d3d 6125 99bb
00000030: 35fb b43d 3ee1 ee3c 5ad2 7bbd 3d3d 2a3e
00000040: 15e3 983c 2f52 26bd 6fee d13c 2f93 f8bd
00000050: c4fb 81bd 8ab6 f9bd 7023 7ebd b9ab f63c
00000060: 2a82 07bd 66c2 d13d 4fe9 6ebc 1fb3 0ebd
00000070: ee82 9abc eae6 dd3d ff3f 593c e077 cfbd
00000080: b1d6 14be 188d d43d d1f1 213d a35f 1bbe
00000090: c05c 443c f14a 7a3d 7ea7 2e3d 890f a53d
000000a0: 59b6 a73c 6769 23bd af0b 833d 6eec 953d
000000b0: 16c7 adbd 5b87 babc b193 083e e9bc dabc
000000c0: 63f9 493d eedb e93c 938e 813d 47ea dc3c
000000d0: d3c2 d2bd 72ff 59bd ac85 43bd 4cb2 803d
000000e0: 4f1b 2fbd 3a95 dcbd 162a 82bd 3389 54bc
000000f0: 6f5b 523d 97f8 6cbc b324 2a3c 7b7e 763c
00000100: d1c9 80bd be12 c63c 9e31 e1bc f5e0 11be
00000110: 2983 cf3d 15fc 503c 4e4a b53c 80d1 77bd
00000120: e4c2 283c 55fb eebd 6ce6 693d da0b 2dbd
00000130: 9075 90bd 7d68 89bb ea96 673d 39cf 283e
00000140: 8c57 1c3d 62ef 383d 03e2 2d3d 921f b3bd
00000150: a686 c4bd f661 b53d 7ad0 d83d fe96 a5bc
00000160: d656 913c 1d62 0f3e 835f 1d3d 92cd 943c
00000170: 95c4 9ebd 80d5 f63d ab31 9d3d d6f3 97bd
00000180: 791d 743d d472 a0bd 8c8e 15bd 194b 443c
00000190: eb0c 0e3e 9912 f7bc d0c6 ee3d de45 1cbd
000001a0: b475 f03d a8d4 a5bd 8a68 43bc 4b99 ce3c
000001b0: ac2b fdbc 80e4 f6bc 52a2 0a3e 674d 1c3e
000001c0: c584 dc3d 358a ce3d 2d34 e23d 665d 943d
000001d0: 49e3 94bd c4a3 aa3c 2029 8d3d 9693 4fbc
000001e0: 3b24 cc3d c07b d5bc 9c20 0e3e df16 e13d
000001f0: bd6b 013e 1592 a23d d02d 873d 7b0b 103d
00000200: 134b bcbd b141 03bd cea7 62bd 15d8 4b3d
00000210: 73d7 eebd 64b3 a9bc f873 903d 2984 313d
00000220: 119b f23d 54b0 d63d ef1b aabd 862a 943c
00000230: 2e56 8dbd 921e 0fbe a1de afbd 7f9e ae3c
00000240: 4289 b7bd cfe9 12bc d114 c6bd f819 20bd
00000250: eeda b7bd 3696 e03d a579 143e 908b 90bd
00000260: 866a dbbd 9b77 8e3c 12ce bdbd 5872 edbd
00000270: 359b 953d f410 38bc 127a 883d 2412 afbc
00000280: 83bf b53d 0d1c 81bb f476 86bd 4b04 a7bd
00000290: f422 a7bd c37e 983d 9d6d 6e3c 3fa8 01be
000002a0: f614 67bc 7a72 87bd c625 7d3d 3db0 a13b
000002b0: d798 003d bcdf 3ebd fb0b f1bd 4bf7 1bbd
000002c0: c31f 01be 9712 8db9 827a 9abd 35d0 98bd
000002d0: cf0d bbbd 5410 983b 1223 e13d b598 db3d
000002e0: 3a99 afbd c6de 733d 39f7 32be 11a0 f83d
000002f0: bd77 9dbc b7f9 353c 5ee3 d43c d715 663d
00000300: 0fdd d63d a96d b73d 7264 d83d e88d d93c
00000310: 10ee 3cbd 0374 11bd 5bf4 9c3c 3d98 773c
00000320: f1b0 c63d 3d1f 543c 88c8 e53d 2ba7 353d
00000330: 0217 ba3c 2519 5d3c 1333 9ebc 6fa7 93bd
00000340: 7127 acbd b9af 04ba 9fdb 7bbd 2d72 3f3c
00000350: 77e3 d4bd 46d1 78bc 42a8 003b d20f d53d
00000360: 84c0 f73d 5453 9f3c 4087 0abe a923 87bd
00000370: 644c e13d c105 d6bd a009 ab3c 9614 a13d
00000380: 706b 13be 5f53 cabc c4e8 cfbd 2455 11bd
00000390: a7e3 0e3e f255 9e3d 2e1a b3bd 5bc5 e23b
000003a0: a468 b0bd 2a04 923d 9518 00bd c64a 8b3d
000003b0: 0bf7 d33d e620 bfbc 0a89 a5bd 77ac 42bd
000003c0: 0bc8 913d 5b32 ea3d 9b39 e73c e671 16be
000003d0: c7dd 10be 1581 e5bd 0bb1 8dbd 9f6a e6bd
000003e0: 2c10 4bbd 7f3f df3d c8c6 fdbc d341 113e
000003f0: 1f6a b63d 8221 8f3d b928 423d 78b5 633c

lstm.bias_hh_l0 f4 [256]
0.08522159 -0.019808797 0.06247297 0.07619541 -0.05555663 -0.05743668 0.13232265 0.1077829
-0.06330055 0.028998945 0.035646867 -0.05738707 0.029222654 0.055518333 -0.040788613 0.082076624
-0.033736106 -0.019308075 -0.025678542 -0.04480664 -0.12828062 0.12032956 0.10417712 0.007603018
0.033169802 0.088922516 0.043090552 0.08006879 -0.06531599 0.06350343 0.035024364 0.10576792
-0.0056845043 -0.10580066 -0.015000164 -0.073680684 -0.08771293 -0.018351212 -0.081650324 -0.020622341
0.12794 0.0785073 0.068270855 -0.11700943 -0.06347804 0.03897409 -0.0345407 0.09703929
0.094637975 -0.09210815 0.08595457 -0.1482 -9.0829584e-05 -0.10993659 0.12895058 -0.039625376
-0.09168011 0.1228609 0.14494686 -0.042899325 0.0059304344 0.12996764 0.068141475 -0.09922398
0.0016095219 0.07540407 0.09105735 0.07780298 -0.014597994 0.0723274 0.021081273 0.068076536
-0.02878895 -0.005232847 0.06950215 0.05397021 0.0087069115 0.12909843 -0.12861136 0.07955335
0.012819501 0.102913134 -0.032409195 0.036316525 0.016159395 -0.10242751 -0.08949605 -0.0035109073
0.027602136 -0.07135158 -0.082540564 -0.06732148 0.085330896 0.11040906 -0.018621638 -0.07315144
0.07030353 0.14233543 -0.02095208 -0.07742459 0.071677186 0.1038199 -0.058770232 -0.029687159
0.07069953 0.12009834 -0.04702257 -0.012282865 0.10979248 0.03373438 0.0628209 0.075250275
0.15162224 0.10749782 0.17910634 0.10062823 -0.012655383 0.04664622 -0.03512813 -0.015325716
-0.06266844 0.04259249 0.09871331 0.01755975 0.075534455 0.025044944 0.11814948 -0.002818375
0.0034703072 0.007222031 0.095087014 0.0616845 0.0038931477 -0.019260013 0.14586323 -0.08496841
0.017054277 0.089177266 -0.14672914 0.061180774 0.02231213 -0.10658024 0.06975106 0.13482222
-0.13474683 0.11779615 0.064538345 0.039036117 0.028899612 -0.10428396 0.103635855 -0.12231531
-0.012932865 -0.1181444 0.085297614 -0.12613212 0.039415237 0.122036494 -0.05704892 0.14739545
-0.06989902 0.043624166 0.14914294 -0.015067757 -0.15642206 0.015733743 -0.102619745 -0.041408516
0.14536704 -0.04817501 0.09126235 -0.102288716 -0.059246723 -0.0066384063 0.029760474 0.079678595
0.011046647 0.046932627 0.068370685 -0.010509347 -0.039707914 -0.041449826 0.031233693 -0.07291832
0.03836717 0.089900956 -0.082638204 -0.062223677 -0.050742198 -0.13380827 -0.12603222 0.037352476
-0.04576822 -0.0093610585 0.102036744 0.0636828 0.03262879 0.033310138 0.14216661 -0.03557776
-0.064294025 -0.15078029 0.13157183 0.04687177 0.031943463 0.03139733 -0.045687348 -0.07828766
-0.043669183 -0.037890617 0.0067462954 -0.07920216 0.09505042 -0.07406122 0.12300826 0.15646072
0.12305072 -0.0076718787 0.024612613 0.06057391 -0.053912856 0.13235612 0.051878314 -0.06383917
0.04961538 -0.032153104 -0.015607178 0.0036304467 -0.011203286 0.06278254 0.11510804 0.037899476
-0.024035234 0.08728449 0.08997517 -0.06446582 0.029192874 -0.12084022 0.06825875 0.06326439
0.046543535 0.089268036 0.13983946 -0.033616655 -0.12834425 0.081449725 -0.019303072 -0.09824806
-0.06230759 -0.061301436 0.09025247 0.0068216687 -0.039263513 -0.038592044 0.119458735 -0.099548064
00000000: a888 ae3d 0f46 a2bc a8e3 7f3d 570c 9c3d
00000010: 598f 63bd b942 6bbd 977f 073e 48bd dc3d
00000020: b8a3 81bd 328f ed3c 7302 123d b40e 6bbd
00000030: 5964 ef3c 3167 633d f611 27bd ca17 a83d
00000040: df2e 0abd f82b 9ebc ce5b d2bc 2b87 37bd
00000050: ff5b 03be 586f f63d d05a d53d bd22 f93b
00000060: 0fdd 073d 021d b63d b87f 303d 1bfb a33d
00000070: 64c4 85bd 160e 823d b575 0f3d da9c d83d
00000080: 1445 babb 04ae d8bd 3fc3 75bc e6e5 96bd
00000090: d6a2 b3bd 4855 96bc 4938 a7bd 2ff0 a8bc
000000a0: b402 033e 6fc8 a03d 97d1 8b3d a4a2 efbd
000000b0: c600 82bd 4ca3 1f3d 8d7a 0dbd 89bc c63d
000000c0: 8ed1 c13d 33a3 bcbd f308 b03d bec1 17be
000000d0: c37b beb8 6f26 e1bd 9f0b 043e 384e 22bd
000000e0: c8c2 bbbd 7f9e fb3d f36c 143e 34b7 2fbd
000000f0: 1754 c23b 3d16 053e c28d 8b3d f135 cbbd
00000100: 98f6 d23a 736d 9a3d 477c ba3d 2b57 9f3d
00000110: 6d2c 6fbc 6320 943d a2b2 ac3c b66b 8b3d
00000120: ced6 ebbc 4d78 abbb 2557 8e3d de0f 5d3d
00000130: 6fa7 0e3c 6132 043e b2b2 03be deec a23d
00000140: e208 523c 1fc4 d23d 81bf 04bd a3c0 143d
00000150: b560 843c 84c5 d1bd b449 b7bd 4017 66bb
00000160: e01d e23c c720 92bd 070b a9bd d8df 89bd
00000170: f7c1 ae3d 251e e23d 688c 98bc 6cd0 95bd
00000180: 4cfb 8f3d 61c0 113e b2a3 abbc c990 9ebd
00000190: 7dcb 923d 879f d43d 0eb9 70bd 7c32 f3bc
000001a0: eaca 903d 1ef6 f53d bd9a 40bd 123e 49bc
000001b0: e1da e03d 102d 0a3d 3ea8 803d d11c 9a3d
000001c0: dc42 1b3e d127 dc3d a767 373e 2c16 ce3d
000001d0: 8658 4fbc 1b10 3f3d 84e2 0fbd b618 7bbc
000001e0: 5058 80bd 7675 2e3d 342a ca3d 77d9 8f3c
000001f0: cfb1 9a3d 0e2b cd3c 5bf8 f13d 7cb4 38bb
00000200: 186e 633b c9a6 ec3b fbbc c23d e3a8 7c3d
00000210: 2e24 7f3b 2dc7 9dbc 2c5d 153e eb03 aebd
00000220: 69b5 8b3c 92a2 b63d 2a40 16be b198 7a3d
00000230: eec7 b63c be46 dabd a5d9 8e3d d60e 0a3e
00000240: 13fb 09be 1c3f f13d ae2c 843d 56e4 1f3d
00000250: e1be ec3c d492 d5bd 093f d43d 7380 fabd
00000260: 5ee4 53bc b1f5 f1bd 84b0 ae3d c728 01be
00000270: df71 213d 45ee f93d 21ac 69bd d5ee 163e
00000280: 3827 8fbd 41af 323d edb8 183e c1de 76bc
00000290: 1b2d 20be 0de4 803c 4d2a d2bd fa9b 29bd
000002a0: 19db 143e 2953 45bd c1e7 ba3d bf7c d1bd
000002b0: b1ac 72bd fd86 d9bb 3dcc f33c 882e a33d
000002c0: fffc 343c 6d3c 403d ee05 8c3d 652f 2cbc
000002d0: c4a4 22bd 4bc7 29bd cddd ff3c 3356 95bd
000002e0: e526 1d3d fe1d b83d 383e a9bd 41de 7ebd
000002f0: 0dd7 4fbd 0905 09be 970e 01be e9fe 183d
00000300: 7577 3bbd 205f 19bc a4f8 d03d 216c 823d
00000310: c4a5 053d 3670 083d 2094 113e fcb9 11bd
00000320: 96ac 83bd 2666 1abe c4ba 063e 9dfc 3f3d
00000330: 26d7 023d 7d9a 003d a822 3bbd 4855 a0bd
00000340: 75de 32bd 3133 1bbd 0710 dd3b be34 a2bd
00000350: cba9 c23d 69ad 97bd c1eb fb3d 3d37 203e
00000360: 0402 fc3d 6264 fbbb 64a0 c93c 591c 783d
00000370: bad3 5cbd 5d88 073e 5b7e 543d 1cbe 82bd
00000380: 7f39 4b3d f9b2 03bd 40b5 7fbc caec 6d3b
00000390: fd8d 37bc 2294 803d c4bd eb3d 7b3c 1b3d
000003a0: 8ae5 c4bc 36c2 b23d e744 b83d a806 84bd
000003b0: e525 ef3c 147b f7bd 3ecb 8b3d c390 813d
000003c0: 6fa4 3e3d 29d2 b63d 1332 0f3e 9eb1 09bd
000003d0: ad6c 03be 1dcf a63d 7a21 9ebc 4736 c9bd
000003e0: 3e36 7fbd 3717 7bbd 49d6 b83d 4e88 df3b
000003f0: c7d2 20bd b112 1ebd c8a6 f43d dbdf cbbd

fc.weight f4 [3, 64]
-0.024701549 0.025700066 0.009294802 0.08740242 -0.059448324 -0.0578676 -0.00876761 0.09493448
0.09487706 -0.06412053 -0.053668678 0.04721118 -0.023478976 -0.0155868875 0.013559803 -0.0365649
0.0644289 0.0371348 -0.077138305 -0.008342555 0.07199716 -0.081680946 -0.00323483 -0.008466244
0.077581 0.070573375 -0.08646449 0.066256344 0.024544839 0.07216823 -0.087428205 -0.059897438
0.10949515 -0.07060257 -0.08624977 -0.06956255 0.0026940864 0.012968562 -0.07749095 -0.12790093
-0.03133489 -0.05622464 0.08562459 0.0054033212 0.119205855 -0.030887647 0.08962473 -0.025131116
0.013978304 0.05049262 -0.06258728 -0.037042 0.09477527 -0.12394375 0.1256438 -0.027758662
0.022061849 0.079982184 0.030764546 0.018917497 0.08026139 0.008624949 -0.12995239 0.015446531
-0.08760798 0.0018655355 0.028246555 0.0013659879 -0.034695126 0.08975286 0.047822766 0.03511634
0.09697092 0.10814158 -0.09528812 0.09035877 0.09676608 -0.07123195 0.029285064 -0.022449952
0.06280499 0.044488057 -0.01451865 -0.028148301 0.07112824 -0.073669836 0.08312939 -0.05069666
-0.009527395 0.022288932 -0.05882865 0.050278828 0.0016454516 0.00016522325 -0.03359621 0.105001
-0.08513328 0.036386743 -0.05427105 0.05206688 -0.029056145 0.0798941 -0.013801508 -0.11771416
0.10141532 -0.041648597 0.1025184 -0.11364132 0.09663678 0.074566625 0.05893091 -0.085690394
-0.0069488394 0.093339466 -0.099368915 -0.07429241 -0.027602341 0.084012985 0.11447745 0.074013665
0.044513118 0.064765565 0.017137885 0.05731343 -0.03475477 -0.038634937 -0.027980998 -0.0065918583
0.045186125 -0.081209965 -0.034202352 0.09395245 0.09820796 -0.060417604 -0.07988288 -0.039916314
-0.053157087 0.034230754 0.08248729 -0.08815776 -0.09501873 0.11820545 -0.005179158 -0.092458874
0.14714296 0.022195987 -0.054231547 0.08319549 -0.04737765 0.011181022 -0.13175318 0.1279287
0.13952647 -0.100632414 0.0997048 0.13941288 0.14273445 -0.117777355 0.09911561 -0.08419674
0.08647986 0.013984561 -0.11149808 0.077628635 0.04689993 0.09792474 0.12837008 0.011280773
-0.009978505 0.09591886 -0.10833964 -0.0144881345 0.0596866 -0.15636142 0.1667731 -0.009757682
0.05468624 -0.039868645 0.08715546 0.018218165 -0.07028712 -0.040625054 -0.0025925837 -0.13306299
-0.06627164 -0.07825305 0.121329166 -0.09913984 -0.09880178 0.10079511 0.095007665 -0.02229245
00000000: e75a cabc f288 d23c 3a49 183c 0a00 b33d
00000010: 1680 73bd 9406 6dbd 06a6 0fbc 026d c23d
00000020: e74e c23d a051 83bd b0d3 5bbd 8360 413d
00000030: fb56 c0bc 2560 7fbc f029 5e3c 14c5 15bd
00000040: 4df3 833d a91a 183d b0fa 9dbd 36af 08bc
00000050: 3f73 933d 5748 a7bd 71ff 53bb 00b6 0abc
00000060: cae2 9e3d c688 903d 4b14 b1bd 68b1 873d
00000070: 4212 c93c f0cc 933d 8f0d b3bd 0457 75bd
00000080: fe3e e03d 1598 90bd b8a3 b0bd cf76 8ebd
00000090: 458f 303b 177a 543c 93b3 9ebd 76f8 02be
000000a0: 0359 00bd cf4b 66bd f25b af3d 580e b13b
000000b0: 3322 f43d 1708 fdbc 2c8d b73d c5df cdbc
000000c0: 4205 653c 59d1 4e3d c32d 80bd 5ab9 17bd
000000d0: 8919 c23d 39d6 fdbd c5a8 003e 2266 e3bc
000000e0: 0dbb b43c b3cd a33d ee05 fc3c def8 9a3c
000000f0: 1560 a43d a84f 0d3c 3d12 05be 7213 7d3c
00000100: d06b b3bd fc84 f43a 5265 e73c f30a b33a
00000110: 7a1c 0ebd 59d0 b73d cee1 433d 27d6 0f3d
00000120: b198 c63d 5579 dd3d 6b26 c3bd 050e b93d
00000130: 4b2d c63d 0ee2 91bd 3be7 ef3c f6e8 b7bc
00000140: e79f 803d 1c39 363d a2df 6dbc 4497 e6bc
00000150: afab 913d 36e0 96bd be3f aa3d 4da7 4fbd
00000160: ca18 1cbc 4797 b63c 4ff6 70bd 2cf1 4d3d
00000170: 32ac d73a c73f 2d39 2e9c 09bd c40a d73d
00000180: 5b5a aebd 440a 153d 524b 5ebd 1544 553d
00000190: 2707 eebc 859f a33d b81f 62bc 1f14 f1bd
000001a0: d6b2 cf3d b897 2abd 2bf5 d13d c8bc e8bd
000001b0: 81e9 c53d 63b6 983d 8a61 713d 727e afbd
000001c0: 17b3 e3bb c328 bf3d ee81 cbbd 9e26 98bd
000001d0: 4e1e e2bc 000f ac3d 2773 ea3d 7a94 973d
000001e0: 6353 363d cfa3 843d c064 8c3c 7dc1 6a3d
000001f0: 055b 0ebd ab3f 1ebd 6838 e5bc 8400 d8bb
00000200: 1615 393d 6951 a6bd c417 0cbd 246a c03d
00000210: 4121 c93d 7378 77bd a399 a3bd 4a7f 23bd
00000220: 3fbb 59bd 8c35 0c3d 19ef a83d 0e8c b4bd
00000230: 2e99 c2bd b315 f23d edb5 a9bb 145b bdbd
00000240: a5ac 163e 5cd4 b53c e621 5ebd 6662 aa3d
00000250: 110f 42bd 9b30 373c 4eea 06be beff 023e
00000260: 07e0 0e3e 5e18 cebd 0832 cc3d 40c2 0e3e
00000270: fb28 123e 4135 f1bd 20fd ca3d 576f acbd
00000280: 5a1c b13d 801f 653c 1b59 e4bd c3fb 9e3d
00000290: 241a 403d c48c c83d 7273 033e fed2 383c
000002a0: e27c 23bc 1b71 c43d 2ce1 ddbd a45f 6dbc
000002b0: f079 743d 351d 20be 91c6 2a3e afde 1fbc
000002c0: aefe 5f3d 4e4d 23bd 907e b23d 433e 953c
000002d0: b2f2 8fbd 7566 26bd 56e8 29bb aa41 08be
000002e0: 6db9 87bd 2343 a0bd 6d7b f83d d409 cbbd
000002f0: 9658 cabd ab6d ce3d 6193 c23d a89e b6bc

fc.bias f4 [3]
0.08316324 -0.018009068 -0.15711728
00000000: 7d51 aa3d c187 93bc 5ae3 20be
